assets/models/mnist_model.pth (torch, 916883 bytes, 10 tensors)

weight f4 [32, 1, 5, 5]
000000 96 5b 50 3d de f6 ac 3c c2 39 6c bd 14 17 a0 bd
       0.050868593 0.02111381 -0.05767227 -0.07816902
000010 33 c4 3d bc 17 dd 88 bc e5 98 4c 3d 7e 0f 72 3e
       -0.011582422 -0.016706986 0.0499505 0.23638722
000020 6a 42 82 3d 8e f6 08 3e ab 28 13 be 17 1d 58 3d
       0.06360324 0.13375303 -0.14370982 0.052762117
000030 69 56 ae bc db a6 33 3d 57 c0 72 be 1b 3b ec be
       -0.021281438 0.043860298 -0.23706184 -0.46138844
000040 a2 dd 13 bf 23 41 f7 be 0e f3 65 be 71 fd 8f be
       -0.5776006 -0.48291883 -0.22456 -0.28123048
000050 0d 6d 7a be 69 da ec 3c ce 67 d9 3c 85 e4 81 bd
       -0.24455662 0.02891274 0.026538756 -0.06342415
000060 00 2b 39 3d 8d c4 ef bd 34 aa 55 3d 65 e5 cc 3b
       0.045207024 -0.11707411 0.05216427 0.006252932
000070 da 23 f2 bd 9c ad 22 be fd 93 e2 3d 72 13 3f 3d
       -0.118232444 -0.15886539 0.11063383 0.046649404
000080 f6 c5 20 bd 3e 50 c8 be f6 6c 24 bd 29 0a 76 3d
       -0.03925129 -0.3912372 -0.040142976 0.060068283
000090 8b f7 06 be 68 e8 4b be 5f f5 a1 be bc 65 f2 3d
       -0.13180368 -0.19912875 -0.31632516 0.118358105
0000a0 f5 6c 02 3e cb d7 42 bd 6a d3 42 be ef 12 5d be
       0.12736876 -0.047569077 -0.1902596 -0.21589254
0000b0 18 bd d5 bd b8 7e 88 bd d3 86 40 3e dd 86 db bd
       -0.104364574 -0.06664795 0.18801431 -0.107190825
0000c0 8e d1 40 3e dd 2f 28 3e 91 56 aa 3c d3 be 1b 3d
       0.18829939 0.16424508 0.020793231 0.03802378
0000d0 51 07 75 be f6 b1 fe be 46 0a 03 bd 98 b9 2c 3e
       -0.23928572 -0.49745148 -0.03199222 0.16867673
0000e0 f1 12 c1 bd af 06 f8 bd 17 90 af be 26 e5 7e be
       -0.09427441 -0.1211065 -0.3428962 -0.248921
0000f0 f4 08 19 3e b4 81 af bb 3c a3 95 be 28 5c 15 be
       0.14944822 -0.005356038 -0.292261 -0.14585936
000100 df 70 ab bc 31 0a 3a 3e b2 c7 c8 bd 76 fc 08 bf
       -0.020927845 0.1816795 -0.09803714 -0.53510225
000110 45 35 74 bc d3 79 2c 3e 95 3e ad 3d 36 e5 af be
       -0.014905279 0.16843347 0.08459202 -0.34354562
000120 95 35 f6 be 58 02 f1 bc 37 4a 82 3d 7c fc a6 be
       -0.48087755 -0.029420063 0.063618116 -0.32614505
000130 30 62 6b be f8 da e9 bb 40 25 21 be ea a7 45 be
       -0.22986674 -0.007136699 -0.15736866 -0.19302335
000140 0a b5 a8 be 89 00 1c bc fc 14 b1 3d ca ed 34 3e
       -0.32950622 -0.009521612 0.086465806 0.17668834
000150 00 b1 74 3e 87 68 14 3d 3f 46 40 3e 87 ca f5 bd
       0.23895645 0.036232498 0.18776797 -0.1200152
000160 5f 2a ed 3c 9d 35 3a 3e 28 75 e8 bd 6f 64 00 be
       0.028950868 0.18184514 -0.11350471 -0.12538312
000170 8c 8c 56 3d e8 d2 e2 3c 57 12 22 3e 07 42 1d 3c
       0.05238013 0.027688459 0.15827309 0.009598262
000180 f9 66 25 bd 94 91 6a bd 73 46 52 be 54 f2 93 bd
       -0.040381406 -0.05726774 -0.20534687 -0.07223955
000190 2a a3 c0 3d fb 66 28 3e a3 95 15 be a6 c8 1e 39
       0.09406121 0.16445534 -0.14607863 0.00015142802
0001a0 ec e7 13 be bd 7d 18 3d 65 0f 49 be 9a 89 ae be
       -0.1444394 0.03722929 -0.19634779 -0.34089357
0001b0 5e 9f c4 bc 3a dc 69 3d cf d2 78 3d 07 bf 0b 3e
       -0.024001773 0.05709479 0.060747918 0.1364709
0001c0 4f aa 25 3d ac 02 a6 3d e7 fc de 3d 57 8c 91 bd
       0.040445622 0.08105978 0.10888081 -0.07106846
0001d0 93 79 cc bd 6d 5f 06 3e 47 10 1a 3e a8 57 a0 38
       -0.09984126 0.1312234 0.15045272 7.645722e-05
0001e0 14 7c c4 3a 3e f1 f7 bd b7 d4 08 3e 8c 58 96 be
       0.0014990591 -0.1210656 0.13362394 -0.2936443
0001f0 f8 de 99 be 92 5d 7b 3e 92 59 68 bd 7f 0e 64 be
       -0.30052924 0.24547413 -0.056726046 -0.22271155
000200 e1 d8 7a bd c8 8f cd bd 8c b7 21 3e 19 8a 7b 3e
       -0.061241988 -0.1003719 0.15792674 0.24564399
000210 98 5a 0c 3d 7b 3f 87 bc 06 a2 87 bc 90 11 fa 3c
       0.034266084 -0.016509762 -0.016556751 0.030525953
000220 d9 a5 b7 3d 20 0b 8f bd 72 71 64 3d a9 84 6e be
       0.0896718 -0.06984544 0.055772252 -0.23292793
000230 c7 bf 1a be 3c 66 ff 3c d2 92 8e 3d 3a 94 77 3d
       -0.1511222 0.031176679 0.069615975 0.060444094
000240 23 38 ed bd 56 ea cb bd 4f 4e 01 be c0 14 be bd
       -0.11582973 -0.099568054 -0.12627529 -0.092813015
000250 9e d5 81 bc 8a f3 f8 bc a4 ac ca 3b a1 e0 f5 bd
       -0.01584893 -0.030389566 0.006185131 -0.12005735
000260 d2 cb 73 3d 7c 2e 9d 3c 98 75 ad 3d 48 14 c9 bd
       0.05952055 0.019187205 0.08469695 -0.098183215
000270 02 9d 5f 3c 15 3a 8e bd 0f 3a c8 bd 80 d9 73 be
       0.013648273 -0.06944672 -0.09776699 -0.23813438
000280 30 22 69 3d 45 a4 a4 bb 63 54 7e be c0 61 0a be
       0.05691737 -0.0050244653 -0.24836878 -0.13513851
000290 0f 50 89 bd d5 de fc 3d 51 2f 2a 3e a1 5e e2 bd
       -0.06704723 0.12347189 0.16619612 -0.11053205
0002a0 48 6d a9 bd 94 c4 86 3e 42 a2 db bd 6b 7a 9f 3c
       -0.08272797 0.26321852 -0.107243076 0.019467553
0002b0 bf d0 5e 3e 03 f6 69 3e 97 ab bc bd 55 d8 5a be
       0.21759318 0.22847752 -0.09212416 -0.21371587
0002c0 da e2 de bc b9 d8 69 bd 1b 45 21 3d fa dd af bd
       -0.02720778 -0.05709145 0.039372545 -0.085872605
0002d0 af ae 18 be 56 10 76 be 08 24 33 be a1 86 b1 3d
       -0.14910387 -0.24029669 -0.17494214 0.086682566
0002e0 46 ce bd 3d a8 3b 9e bd 66 2c 0b be 54 2f 0a 3c
       0.09267859 -0.07726222 -0.13591155 0.0084341355
0002f0 52 28 4d 3d 53 ff 6d 3e 18 75 7f bd c3 e6 1a 3d
       0.05008728 0.2324193 -0.06236753 0.037817728
000300 d0 c0 b3 3c 4b 2e e2 bd 00 2e 02 3e 17 d5 0b bd
       0.021942526 -0.11043986 0.1271286 -0.034138765
000310 5f f5 e9 bd ba 80 ee 3d 96 c3 1b 3e fa 62 da bc
       -0.11423754 0.116456464 0.15211329 -0.026658524
000320 50 fb cc 3d 8d 87 61 bd 5e e1 22 bd 1c 5b bc bd
       0.100088716 -0.055060912 -0.03976571 -0.09197065
000330 5c 70 02 3d 12 fd fd bd 56 66 81 be c9 d2 1f be
       0.031845436 -0.12401785 -0.2527339 -0.15607752
000340 e5 a7 19 3e a3 01 56 be e7 49 76 be 12 8f 8f bc
       0.15005453 -0.20899062 -0.24051629 -0.017524276
000350 0f 99 47 3e 7b ad c1 bc 38 d3 9e 3d b3 5e a0 3d
       0.19491981 -0.023642292 0.077551305 0.078305624
000360 29 a9 47 3c 9d e3 4d 3e 95 13 42 3c 6c 59 87 be
       0.012186327 0.20106359 0.011845489 -0.2643541
000370 b5 6f 22 3d ed 1d 33 3e 4e ef a1 bd 28 94 9c 3d
       0.039657313 0.17491885 -0.07906972 0.07645446
000380 06 87 41 bc e3 3a 00 3e 51 e0 21 be 0d 59 08 be
       -0.011811977 0.12522464 -0.15808226 -0.1331522
000390 2e 7c 87 bd f4 0d 68 3d 8d af 4e 3a bf 60 f9 3d
       -0.06615482 0.05665393 0.00078844355 0.12176656
0003a0 52 f2 00 3d 0e 33 65 be 31 e9 71 be 40 11 42 bd
       0.031481095 -0.22382757 -0.23624112 -0.047379732
0003b0 6d 56 19 3e 75 60 0f 3e 07 5d d5 bd 1b 1c 30 be
       0.14974375 0.14001639 -0.10418134 -0.17198221
0003c0 87 e7 54 be 68 82 50 bd 7e b1 37 3e 7d be 33 3e
       -0.20791446 -0.050905615 0.17938802 0.17553134
0003d0 1b e9 5a ba d4 ff 8d 3d d0 57 4c be e0 51 98 3d
       -0.00083507755 0.06933561 -0.19955373 0.074374914
0003e0 d4 6e de 3c 3a de 4c 3e 7a d1 ce bd 08 96 91 be
       0.027152456 0.20006648 -0.10098548 -0.28434777
0003f0 4a 27 12 bd 19 3c 0e be 25 8d 1d 3e 2c 28 ee be
       -0.035682 -0.13890113 0.15385874 -0.46515024

bias f4 [32]
000000 f0 da f3 3d f1 08 ba bb ea 00 92 3d c8 9b 43 bd
       0.119069934 -0.0056773354 0.071290806 -0.047755986
000010 4f c9 52 bc b8 d5 14 3c c0 5e 21 bd b7 34 39 be
       -0.0128653785 0.009084158 -0.039397 -0.18086515
000020 02 9b 28 bd 17 a1 e7 bd d4 bd 1b bd 38 9d bb bd
       -0.041163452 -0.11310022 -0.03802283 -0.091608465
000030 2e 14 24 bd 94 96 37 be d7 1c 05 3e 87 bb 14 be
       -0.040058307 -0.17928535 0.12999283 -0.14524661
000040 c7 18 13 3e 9f d1 d2 bb df 37 09 bd 4c 46 27 be
       0.1436492 -0.00643368 -0.03350055 -0.1633541
000050 20 d8 85 bd 38 f2 ab bd ad 5a 97 bd 9f 55 d9 bc
       -0.06535363 -0.08395809 -0.07390342 -0.026530085
000060 7a 7f 59 be e6 89 be 3d b2 d7 53 3d 91 03 47 be
       -0.21240035 0.09303646 0.051719375 -0.19434954
000070 d3 6d 8b be d8 8e 55 be 34 d6 26 3d 11 87 be bd
       -0.27232227 -0.20855272 0.040731624 -0.093031056

weight f4 [32, 32, 5, 5]
000000 77 93 c0 3d 1b b6 d7 bc 56 de 97 3d 49 93 8f 3c
       0.09403127 -0.026331952 0.07415454 0.017526286
000010 5f 85 00 3e 04 a1 0b 3e da 19 43 3e d4 14 32 3e
       0.12550877 0.13635641 0.1905283 0.17390758
000020 39 bb 4b 3d 30 d4 81 3d 61 17 7c bd 63 83 a1 bd
       0.049739096 0.063393 -0.061545733 -0.07886388
000030 cd c0 f2 3b d0 43 00 3e db 1e 30 3d d1 9c 55 be
       0.0074082376 0.12525868 0.042998176 -0.20860602
000040 9f 4d 0e be ac 68 b8 bd fd 66 0a be c4 22 c4 bd
       -0.13896798 -0.090043396 -0.1351585 -0.095769435
000050 5d be e6 bd 68 c5 d0 bd 79 d0 72 3d d0 78 6f 3d
       -0.11266778 -0.10193902 0.059280846 0.058464825
000060 e7 95 c3 3d 6a 05 29 bd 45 be 51 bd f9 6d b2 3d
       0.09550076 -0.04126493 -0.051206846 0.08712382
000070 f0 49 11 3e 0e e6 6e 3d 3f ec ef 3b f8 64 83 3c
       0.14188361 0.058324866 0.007321864 0.016039357
000080 12 58 79 3d 05 70 74 3d 41 83 fa bc 1e f0 82 bd
       0.060875006 0.059677143 -0.030580165 -0.06393455
000090 e4 ab 9b bc c7 0d bb bd 96 0b 1d bd 4a 1c 4b bc
       -0.019002862 -0.09133487 -0.038341127 -0.012396881
0000a0 9e e4 13 be e5 31 bf bd e2 6c dd bc bf 1a 16 3d
       -0.1444268 -0.093356885 -0.027029458 0.0366466
0000b0 55 8c 04 be 33 95 08 bd 21 af 54 bd db 47 6d bd
       -0.12944157 -0.033345412 -0.05192483 -0.057929855
0000c0 3c bb 8f bd 2e 64 89 3d be 2f c3 bc f8 be 66 3d
       -0.07018134 0.06708561 -0.023826476 0.056334466
0000d0 91 bd cd 3d 2c 1e 69 3d e5 b5 13 3c cf 75 f6 bd
       0.100459225 0.05691354 0.009015535 -0.12034189
0000e0 46 88 d9 bd 07 1d 5d bd 89 92 c2 bd 22 9c 07 be
       -0.10621695 -0.05398276 -0.095006056 -0.13243154
0000f0 cf b3 ac bd 59 74 03 be 05 82 c0 bd 55 88 05 be
       -0.08432733 -0.12837352 -0.09399799 -0.13040288
000100 74 15 e6 bd 55 70 3e bc 0f 06 0f be 7b 48 27 be
       -0.112345606 -0.011623462 -0.13967155 -0.16336243
000110 20 a0 fd bd 47 41 f9 bd 6a ce 9a bd 92 c2 1d be
       -0.12384057 -0.12170654 -0.075589016 -0.15406254
000120 98 01 9c be ae 69 de bd b9 be 6e be fe c0 1b bd
       -0.30469966 -0.108600006 -0.23314942 -0.03802585
000130 b3 89 16 bd 56 02 09 3e dd 68 35 3d 1c 28 a0 3c
       -0.036752414 0.13379797 0.04428946 0.019550376
000140 fc df 79 be 1e 6f b8 bd e1 bf 78 bc f0 f6 9a bd
       -0.2440185 -0.09005569 -0.015182466 -0.07566631
000150 bb 20 22 bd f8 e4 a7 bd f5 d5 6d be 0e 90 0d be
       -0.039581995 -0.08197969 -0.2322615 -0.13824484
000160 9b 35 ee bd 5e e6 ab bd 69 a7 ff 3d ca 56 c3 3c
       -0.11631318 -0.083935484 0.12483103 0.023845095
000170 32 ee 24 3d 77 87 f2 3d f0 45 00 3d 66 da f4 3d
       0.040266223 0.11842244 0.031316698 0.11955719
000180 9e a9 c8 3c 37 a2 1f 3e e7 ee 0a 3d ba 9b 92 3c
       0.024494942 0.15589224 0.03391924 0.017896522
000190 9e c4 77 3d 3c 9a 9d bd d7 90 80 bd a5 71 07 be
       0.060490243 -0.076954335 -0.06277626 -0.13226946
0001a0 c7 35 d1 bd 19 08 07 be 6a 6e b7 bd 8d c6 65 be
       -0.10215335 -0.13186683 -0.08956607 -0.22439022
0001b0 2c 38 ea bd bc b9 14 3d 85 49 05 3d 9b 1c 42 bd
       -0.11436495 0.036309943 0.032540817 -0.04739056
0001c0 d8 ab e2 bd 90 91 93 bd fd 2c 43 bd 45 e3 ce 3d
       -0.11067933 -0.07205498 -0.047650326 0.10101942
0001d0 2e 0c 09 3d 76 a7 63 3c f5 b9 5a 3b bd 9f 8c 3d
       0.03345888 0.013894906 0.0033375 0.06866405
0001e0 07 1d 96 bc ca 4f bc 3d ac 2b 0d 3d 47 36 f4 3d
       -0.018324388 0.09194906 0.034465477 0.11924415
0001f0 29 e9 71 3c f1 82 c2 3d bf 46 60 3e 01 0f 9d 3d
       0.014765062 0.09497631 0.21901987 0.076688774
000200 b7 94 de bc 6b fc ad 3d bd 35 86 bd a6 43 1b bd
       -0.027170522 0.084954105 -0.065532185 -0.03790631
000210 b6 af 83 3d f6 cb 47 bd 53 e6 a7 3d b7 61 4b be
       0.064299986 -0.048778497 0.08198228 -0.19861494
000220 d6 56 f2 bd 08 5d 66 be 97 e1 35 be d5 86 b0 bd
       -0.11832969 -0.22496426 -0.17761837 -0.08619467
000230 71 f5 1a bd 89 81 01 be 3d 70 df bd 12 dc b7 bd
       -0.037831727 -0.1264707 -0.1091008 -0.08977522
000240 67 89 c9 bd 52 7c 5d bc ce c7 03 3d a9 1c 28 bd
       -0.098406605 -0.01351841 0.03217297 -0.041042957
000250 7e 71 99 3d 45 de 6e bd 0d 9d 12 bd d5 28 d1 bd
       0.0749235 -0.05831744 -0.035794307 -0.10212866
000260 cb 75 9e bd 0d 67 03 3d ea 91 d8 bd ec 3e 03 3d
       -0.07737311 0.0320807 -0.10574706 0.03204243
000270 8c ef f3 3c 21 12 c5 3d 31 2b 49 3c 4d 05 0b 3e
       0.02977731 0.096225984 0.012278364 0.13576241
000280 6e 4a f9 3d fe 0a 3f bd e4 15 07 3d 95 2c 73 bc
       0.121723995 -0.046641342 0.03297986 -0.014842172
000290 94 38 0e bc dd c0 80 bd e4 b9 a8 3d 29 96 f0 bc
       -0.008680481 -0.06286786 0.08238581 -0.029368477
0002a0 61 de b9 3c 6d bc 05 3d 99 20 24 3d 28 f1 06 3c
       0.022689046 0.0326504 0.04007015 0.008236207
0002b0 1e 8c f7 bc f9 41 d6 bc 78 df c7 3d 8d 0b 11 be
       -0.03021818 -0.026154505 0.0975942 -0.14164563
0002c0 83 97 fd bd 22 ce 60 3d 1d c7 7f 3c 87 4d b0 bd
       -0.12382414 0.054884084 0.015611437 -0.08608537
0002d0 6e 8b 03 be ee df 08 be 74 f5 cf bc 60 b9 3c bc
       -0.12846157 -0.13366672 -0.025385596 -0.011518806
0002e0 59 cb 78 bd 64 d7 17 bd 30 f1 99 bb 4e 46 4c bc
       -0.060740802 -0.037070647 -0.0046979412 -0.012467934
0002f0 b3 2a 0c 3c 23 f5 b6 3c 35 10 fe 3c 70 cd 4d 3d
       0.008555102 0.022333687 0.031013587 0.05024475
000300 0e 83 09 be 5b 85 fe bd c6 36 73 bd fe 03 f6 3a
       -0.134289 -0.12427779 -0.059378408 0.00187695
000310 7e 64 8a bc 07 19 e4 bd 56 38 b8 bd 6e c4 05 be
       -0.016893622 -0.11137586 -0.0899512 -0.13063213
000320 be df 1b bc d0 08 e5 bd 41 0f 07 bc e6 1e 39 be
       -0.0095137935 -0.111833215 -0.008243383 -0.18078193
000330 a2 1e 28 bd 4b a9 15 bd 8b 0b 59 bd 8c 7d a9 bc
       -0.04104484 -0.036538403 -0.052989524 -0.020689748
000340 b0 25 d2 3c e9 a0 98 bc c0 da 06 3d 2d f1 bd 3d
       0.025652736 -0.018631415 0.03292346 0.09274516
000350 f9 2e 56 3c 58 f4 ec 3b 2d 76 c7 3d 5c 46 f1 ba
       0.013072723 0.0072312765 0.09739337 -0.001840781
000360 64 0f 41 3b 92 3c a3 bd d9 ea 85 3c 83 32 0a 3e
       0.0029458636 -0.07970537 0.016347336 0.13495831
000370 e6 e5 2f 3a 36 09 89 bd b1 fe e3 bd 9d 95 84 bd
       0.0006709978 -0.0669121 -0.11132563 -0.06473849
000380 2e 6f 97 bd 62 5c 4b be 83 65 3c be 54 33 ce bd
       -0.07394253 -0.1985946 -0.18398099 -0.10068384
000390 15 75 b4 bd 72 7c 36 bd 5e 7d 72 3d 98 f2 22 bd
       -0.08811394 -0.044552274 0.05920159 -0.039782137
0003a0 70 8a 39 bd d5 50 67 bd b8 b2 1e 3d b9 c0 c8 bc
       -0.04529804 -0.05647357 0.03874466 -0.02450596
0003b0 d1 50 ca 3d d4 2e a8 bd 71 49 c5 3c 5d cf 1d 3c
       0.09878696 -0.08212057 0.024082871 0.009631959
0003c0 fe ce 0a 3d 29 99 73 bd 8b 7f 59 3d 57 43 a5 bd
       0.03388881 -0.059472237 0.05310015 -0.08069485
0003d0 a0 79 22 3d b0 e2 33 bd 70 53 80 3b f0 c6 d5 3c
       0.039666772 -0.043917358 0.0039161965 0.026095837
0003e0 87 b4 81 3d 5b 75 ad 3c de c6 06 3e f5 ab a5 3d
       0.06333261 0.021174124 0.131618 0.08089439
0003f0 bb 63 d3 3c ca 4b 68 3d ef a0 bd 3d cf 04 e1 bd
       0.025804391 0.056712903 0.09259211 -0.10987245

bias f4 [32]
000000 7f 3a bc 3c f2 21 a7 3d c1 f4 55 ba f5 91 3f 3d
       0.022977112 0.081607714 -0.00081617763 0.046770055
000010 ba 20 ec bb a7 88 8c bd ba f7 41 3d 9d d5 aa 3d
       -0.0072060497 -0.06862002 0.04735539 0.08341525
000020 e7 73 4b bc f8 c4 49 bb 93 5e 83 3d 41 57 1e bd
       -0.01241777 -0.0030787569 0.06414523 -0.03865743
000030 f9 eb 34 3d 9a 23 a1 3d 9c 4d 05 3c ce 4f 76 3a
       0.044170354 0.078681186 0.008136179 0.0009396047
000040 cc b0 51 3c f3 29 f9 3c 7d 9f f6 3d 2e 30 5d 3d
       0.012798499 0.03041551 0.12042139 0.054001026
000050 bf f6 19 bd 2a c0 33 3e 9b b2 9e bd ff d1 00 3d
       -0.03758883 0.17553774 -0.0774891 0.031450268
000060 78 94 94 3d c9 bb 63 3d 8b 0b 7c 3d 1f a1 f1 bc
       0.07254881 0.055599008 0.061534446 -0.029495774
000070 54 d4 87 bd 8f 6b c5 3d 79 a3 b4 3d ed f9 f2 3c
       -0.06632295 0.09639656 0.088202424 0.02966019

weight f4 [64, 32, 5, 5]
000000 d1 bb 94 bd ca fd 62 bd 1f 59 a0 3d 87 80 bf 3b
       -0.07262386 -0.055417813 0.078294985 0.005844179
000010 5d 4b e8 bd 00 f5 39 be 6f 2d 6a bd f4 fc 47 bd
       -0.113424994 -0.18159866 -0.057172235 -0.04882522
000020 a1 f7 94 bc 46 20 07 bd 45 0a 9b 3d 45 76 58 3d
       -0.018184485 -0.032989763 0.07570318 0.052847166
000030 3a fa 69 3d d5 14 ff b8 a9 79 ac 3d f6 e8 2e bd
       0.0571234 -0.00012163228 0.08421642 -0.042702638
000040 c5 6c 17 3e 08 a1 f7 bb b2 45 a1 3d 62 b3 05 3e
       0.14787586 -0.007557038 0.078746215 0.1305671
000050 e9 9d ce bd 63 ec 68 bc 3d 8e 04 3d 36 20 38 3d
       -0.10088713 -0.014216515 0.03236221 0.044952594
000060 47 89 6f 3c d2 3e b2 bd 16 88 53 bd 8a 92 08 bc
       0.014620132 -0.08703388 -0.051643454 -0.008335719
000070 13 87 f6 bc 51 ee 6a be 39 ed 85 be 37 dc 29 be
       -0.030093705 -0.22942473 -0.2615755 -0.16587912
000080 fc b7 1a be 56 1e 98 be a1 af 47 3c f2 c9 5e be
       -0.15109247 -0.29710644 0.012187869 -0.21756724
000090 fe 43 94 be 47 fc b6 bd bd 95 9c bd 2c 6b 2b bd
       -0.28958124 -0.08934837 -0.07645748 -0.041850254
0000a0 e8 f6 40 be bd 7c 4c be 36 e1 1b be 14 6a e1 bd
       -0.18844187 -0.19969459 -0.1522263 -0.11006561
0000b0 84 7e fa b9 4a b3 40 bd 9d 3b 01 bc bf 01 91 bc
       -0.00047777977 -0.047045983 -0.007887748 -0.017701028
0000c0 45 26 94 bd 13 7c 07 be 08 11 d0 3d ad d9 9e 3d
       -0.07233862 -0.13230924 0.101594985 0.07756362
0000d0 48 0c 38 3a e2 d8 bc 3c 24 3a 42 bc 8b 15 08 be
       0.0007020873 0.023052637 -0.011854682 -0.13289468
0000e0 8b 59 20 be b7 0a e7 bd 67 57 31 be 00 56 e2 bd
       -0.15659158 -0.112813406 -0.17318498 -0.110515594
0000f0 8d 59 7d bd b9 86 9d bd f9 f7 e2 bc 3a 94 25 3d
       -0.06185298 -0.07691712 -0.027706133 0.040424563
000100 74 ab b2 3d 9f 5a 40 bd c1 b0 ab 3c e4 20 a3 bd
       0.08724108 -0.046961423 0.020958306 -0.07965258
000110 b8 4c 2f bd fe ed 8c bb e3 80 f9 bc 93 b5 ae 3c
       -0.042797774 -0.004300832 -0.030456966 0.021326816
000120 06 bb 29 3d db 41 02 bd 04 b7 1c bd 37 0c 06 be
       0.041438125 -0.031801086 -0.038260475 -0.13090597
000130 ff 5c 24 be 20 ba 11 be 1e d0 55 3d 4a d8 6f bd
       -0.160511 -0.14231157 0.05220043 -0.05855588
000140 0f 36 26 bc 76 17 59 be e7 04 33 be e1 c8 95 bd
       -0.0101447245 -0.21200356 -0.17482339 -0.07313705
000150 04 53 3b be ff 0c 89 bc 46 15 b3 bc 5a fb 8d bd
       -0.18293387 -0.01672983 -0.02186073 -0.06932707
000160 73 9e 51 b9 c2 3a 10 be 8c 35 4e bd d4 6a c7 3b
       -0.0001999082 -0.14084914 -0.050344035 0.006085733
000170 c3 e6 fb bd e7 d4 a0 bd 5b 42 25 3c 9f b8 69 bd
       -0.12299874 -0.07853108 0.010086621 -0.057060834
000180 76 32 58 bd 93 ba 1b 3c 4b cf 52 3d 55 fd a3 3c
       -0.0527825 0.009504932 0.05146722 0.020018259
000190 5d 9f 11 be ca d3 49 bd df aa 38 3d 16 68 e1 3d
       -0.14220949 -0.049274243 0.04508483 0.11006181
0001a0 56 f1 05 3e 3a 51 6a bc 80 b9 7c 3d af 5e 21 3c
       0.13080344 -0.0143015925 0.061700344 0.0098492345
0001b0 4e 18 48 3d f3 0f 12 3d 44 ce 27 bc 43 4f 46 3d
       0.048851304 0.03565974 -0.010242049 0.048415434
0001c0 ff 15 10 be cc 9a ec bc 2f da 4a bc a7 e1 33 bb
       -0.14070891 -0.028882407 -0.012381121 -0.0027447732
0001d0 7a ab 25 bd 95 06 13 be 26 7a 44 3d f2 c5 4a bd
       -0.040446736 -0.1435798 0.047968052 -0.04950518
0001e0 b4 8b 3d bd af 06 59 ba 68 52 d9 3d 03 b5 db 3d
       -0.04627581 -0.0008278889 0.10611421 0.107278846
0001f0 1d f1 01 3e 1a fc 10 3d 97 18 4f bc 2c 3d 14 3d
       0.12689634 0.035396673 -0.01264014 0.03619115
000200 32 57 55 bd 51 1c ff bb 1d 1d 63 3c e4 09 76 bc
       -0.05208511 -0.007785358 0.013861922 -0.015017007
000210 6c a3 8f bc e2 56 94 3d 10 5a 47 bd d2 9c 00 3d
       -0.01753398 0.07243134 -0.048669875 0.031399556
000220 3b bf cb 3c 68 7b 98 3d a4 f1 6a 3c 8d 72 be 3d
       0.02487146 0.07445413 0.014339838 0.092991926
000230 69 d0 40 3d 77 b2 4e bc fe 18 a3 3c c5 32 e6 3c
       0.047073755 -0.0126157915 0.019909378 0.02810038
000240 d7 6b 05 3d 46 2b d9 ba 82 93 0d 3d 4a 9b 8f 3c
       0.032573547 -0.0016568683 0.034564503 0.017530102
000250 5c 85 a3 3c 67 63 5b bc 2b 7f df 3d b6 f9 26 3d
       0.019961052 -0.013390399 0.10912927 0.040765487
000260 63 7a d6 3b 3a 52 74 3d fe 59 cd 39 18 8f c3 bd
       0.0065453514 0.05964873 0.00039167696 -0.09548777
000270 50 9a 91 be 72 96 b1 bd 10 3b f9 bb 31 e2 01 be
       -0.28438044 -0.08671273 -0.0076059178 -0.12683941
000280 1d 7e 1e be 42 f2 8d be ad 0c 1c be 84 1c be bd
       -0.15477796 -0.2772389 -0.1523921 -0.09282783
000290 5a d6 40 bc ad 00 64 be cc 81 a5 bd a3 84 1a bd
       -0.011769855 -0.22265883 -0.080813974 -0.03772415
0002a0 4a fa 46 3d cc 0a 03 3b ee f6 1b be b9 24 ff bc
       0.048578538 0.001999545 -0.15230915 -0.03114544
0002b0 44 d1 b7 bd be 4c 8c 3d 31 67 99 3d 35 c3 43 be
       -0.08975461 0.06850575 0.07490385 -0.19117434
0002c0 50 6d 89 3c ad c1 5a 3d cd 9d b6 3d 1b c3 62 bd
       0.016775757 0.05340736 0.08916817 -0.05536185
0002d0 4a 80 82 be 11 f6 5f 3d 06 b7 64 3a 93 8e cd bd
       -0.25488502 0.054678027 0.00087247824 -0.100369595
0002e0 82 49 09 bd b0 76 80 be 62 b9 05 be 6e 7b f5 bd
       -0.03351737 -0.2509055 -0.13058999 -0.11986433
0002f0 22 98 d6 bd fb 46 02 be e2 f3 b7 bd 04 5a 0f be
       -0.10478236 -0.1272239 -0.08982064 -0.13999182
000300 71 66 0c bd eb 83 88 bc ee b6 c3 3d 54 ec 2e bd
       -0.034277383 -0.016664466 0.095563754 -0.04270585
000310 52 5f 86 bd 1e b9 b4 bc 8c e9 80 ba 21 81 04 3c
       -0.0656115 -0.022060927 -0.0009835227 0.008087427
000320 5c 37 91 bd 5d 2a b7 3d b6 ea 40 3d 73 5e a3 bd
       -0.07090637 0.08943627 0.047098838 -0.07976999
000330 0e a2 03 3c f6 1b 38 be 6d 3a 3c be 7f d3 3b be
       0.008034242 -0.17979416 -0.18381663 -0.18342398
000340 49 df 48 be ff ac 1a bd 62 6c 09 3b a0 60 e2 3c
       -0.19616427 -0.03776264 0.0020969142 0.027633965
000350 4d 3d 65 bd 82 0c 10 3e 8a f0 34 3d 8f 5f 9f bc
       -0.055966664 0.14067271 0.04417471 -0.019454746
000360 aa ed 16 3c d4 de 07 3c ea ee 3c bd 46 1f d3 3d
       0.009211937 0.008292872 -0.046126284 0.10308699
000370 64 03 63 3b 11 d1 fb bb 97 4e 36 3d 36 09 09 be
       0.0034639472 -0.0076848348 0.044508543 -0.1338242
000380 97 6e d7 3b 0c 01 03 be 6f 3f c5 bd b6 98 df bd
       0.0065744626 -0.12793368 -0.096312396 -0.10917799
000390 65 55 06 be bb 41 1f be cf e3 c5 3c 06 fd c1 bd
       -0.13118513 -0.15552418 0.02415648 -0.094720885
0003a0 49 6e 11 bd 4d ef a5 3c 14 64 c3 3d 94 6d 3a 3c
       -0.035505567 0.020255709 0.09540573 0.0113786645
0003b0 bc 24 08 3e 40 9e a6 39 4c 28 f8 bc e3 26 bf 3c
       0.13295263 0.00031779893 -0.030292653 0.023333972
0003c0 de 39 cb bc 2e 9c 47 3d fc 7f c1 bd be cb 60 3d
       -0.024807867 0.04873293 -0.09448239 0.054881804
0003d0 9e 7f ef 3c 46 88 97 bc 77 29 b9 bd 51 ab 71 be
       0.029235657 -0.018497597 -0.09041112 -0.23600508
0003e0 1c 20 d6 bc 84 c0 b1 3d 53 72 31 3d 41 c0 db bd
       -0.026138358 0.086792976 0.04332192 -0.10730029
0003f0 9a 4a b0 3d be 95 5e 3d 2b 5d 95 3d c7 03 3d be
       0.08607979 0.054342024 0.07293161 -0.18458472

bias f4 [64]
000000 52 49 07 bd c1 ec 53 3e 2f 28 f1 bc c1 74 a0 bc
       -0.033028908 0.20695783 -0.029438106 -0.019586923
000010 c3 23 c6 bc 3d b5 fb bc 78 dc 39 bd 90 3f 60 bc
       -0.024186974 -0.03072607 -0.04537627 -0.0136870295
000020 bc fe 50 3c 29 32 07 bd ff 66 ab bd b5 8a b8 bc
       0.012756046 -0.03300682 -0.08369254 -0.022527078
000030 32 43 16 3e 2d 34 3e bd 1b 6f 34 bd 86 1e 1f 3e
       0.1467407 -0.046436477 -0.04405127 0.15538988
000040 22 c5 87 3d 9e 7b 62 bc 52 a9 39 bc ed d6 f9 bc
       0.06629397 -0.013823418 -0.011331873 -0.030497992
000050 f2 92 97 bd 3b cd 2e 3d 0f 7f 3d 3e de 80 9d 3c
       -0.074010745 0.04267619 0.185055 0.019226488
000060 f8 65 26 3d 6e ec 88 bc df 5d 98 bd 28 8e 1f bd
       0.04062459 -0.016714301 -0.074397795 -0.03895393
000070 7a 38 46 bd b9 85 88 bd 79 cd 01 3c 73 28 d9 bd
       -0.048393704 -0.066661306 0.007922524 -0.10603418
000080 90 d8 75 bd 98 3b 1d bd 25 72 ac bc 88 df 71 bd
       -0.060020983 -0.03838691 -0.021050522 -0.059051067
000090 ff 39 a1 3d 29 ff 90 bd 80 e0 5f 3d 94 be 2f bd
       0.0787239 -0.07079918 0.05465746 -0.04290636
0000a0 28 55 71 3d e8 b5 73 bc c1 41 8d 3c 79 4c 62 bd
       0.058919102 -0.014874913 0.017243268 -0.05524871
0000b0 f2 59 71 bd a0 2e 63 bd a8 52 8c 3c db ff e9 3d
       -0.05892367 -0.055464387 0.017129257 0.11425754
0000c0 59 11 ff 3b bb 82 05 bd b1 52 1a bd 3a 44 93 3d
       0.0077840504 -0.032595377 -0.037676517 0.071907476
0000d0 85 6a 22 bd f6 4e 7e 3d 0b 69 e3 3b 28 c5 a7 bd
       -0.039652366 0.06208702 0.0069400123 -0.081919014
0000e0 dc d0 1e 3d db 48 58 bc ed 4f b2 3d 46 05 23 bd
       0.038773403 -0.013200964 0.08706651 -0.03979995
0000f0 92 2b 8f ba 15 be 27 3d 35 f9 b7 3d 16 81 47 bd
       -0.0010923019 0.04095276 0.08983079 -0.04870709

weight f4 [256, 576]
000000 1a 94 cc bd 9b 61 d9 bc 78 ca d3 3d ae fe c8 bd
       -0.09989186 -0.0265358 0.10341352 -0.09814201
000010 ed a6 17 3d 09 66 9f 3d 75 87 84 3c ba 0b ef 3c
       0.037024427 0.077831335 0.016177872 0.029180396
000020 13 7f de bd 06 9f 55 bc 81 68 56 3c d4 27 60 be
       -0.10864081 -0.013038402 0.013086439 -0.21890193
000030 99 e9 ce bd ce 7a 44 3d 96 25 df 3c 39 e3 04 be
       -0.10103149 0.04796868 0.027239602 -0.12977304
000040 e4 f0 f7 3c cc 21 4c 3d 71 6f a8 bd 27 7c 8b bd
       0.030266233 0.04983692 -0.08224381 -0.068107896
000050 98 e8 7b bd 14 43 93 3c 03 a8 74 3d 98 4b b8 3d
       -0.061501116 0.017976321 0.05973054 0.08998793
000060 05 66 be bd 68 78 90 3d d3 78 78 3d eb 95 02 3e
       -0.092968024 0.07054216 0.060662102 0.12752502
000070 85 ad 89 3c 7e 9d f0 bc e6 b5 c1 bd 55 0f e1 3c
       0.016806373 -0.029371973 -0.094585225 0.027473131
000080 87 2d 4c be b0 cc ea bb 4b 89 4e be 6f f7 ed bd
       -0.19939242 -0.007165514 -0.2016956 -0.1161946
000090 b4 87 08 3b d3 9b 8d 3d 38 41 89 3d 72 28 fd bc
       0.0020832838 0.06914487 0.067018926 -0.030903075
0000a0 d1 56 30 bc f4 03 5a 3d 99 ef 1b bd 25 02 c1 bb
       -0.010762886 0.053226426 -0.038070295 -0.005890148
0000b0 1c 85 9b 3d 5b e8 b7 3c 84 08 a7 3a dd b2 53 3c
       0.07593748 0.022449663 0.0012743627 0.012921062
0000c0 18 04 6f 3c a8 5c e5 3c 4b ce ab 3c 82 24 6b 3c
       0.014588378 0.027998284 0.020972392 0.014351966
0000d0 3c 61 a7 bc 0b 9e 03 bd 94 6e af bd cb cf cf bd
       -0.020432107 -0.032133143 -0.08566013 -0.10147055
0000e0 fb 81 2b bb 8d de c4 bd 4b 1c 09 3c 30 58 c0 3c
       -0.0026170004 -0.09612761 0.008368562 0.023479551
0000f0 5d 32 dd bd a6 46 9c 3d 5e b5 db bd f1 1a b9 3d
       -0.10800622 0.076306626 -0.107279524 0.09038342
000100 c4 67 e0 3b 37 1c 2a 3d 2c 13 62 3d 39 ce 98 bd
       0.0068483073 0.041530814 0.055194065 -0.07461209
000110 7d bb 42 be 53 07 42 bd 07 b3 29 be 78 b0 9a bd
       -0.19016834 -0.047370266 -0.165722 -0.0755319
000120 77 04 c4 3c 20 90 2f bd fc 6c 07 be 04 8e 2b be
       0.02392791 -0.042862058 -0.13225168 -0.16753393
000130 c5 27 cc 3c 52 a2 0c bd 55 0b 08 3d 08 f9 3e bd
       0.024921307 -0.03433449 0.033213932 -0.046624213
000140 c8 82 2c 3d c3 58 84 bd a0 d8 5a 3c ef b0 e3 3d
       0.04211691 -0.064622425 0.0133573115 0.11117732
000150 2b 3f 19 be b1 e0 c8 bc ea 0f 4a 3e 04 ad 4a 3d
       -0.14965503 -0.024521204 0.19732633 0.049481407
000160 ec d2 35 bd 22 52 9a 3c 69 28 36 bb c3 63 7e bd
       -0.044390604 0.018837992 -0.0027795082 -0.06210686
000170 28 88 88 bc 21 ba b0 3a d0 5b d5 bb d6 86 23 bd
       -0.016666487 0.0013483205 -0.006511189 -0.03992351
000180 f5 27 f6 3c bb 67 57 3c 56 cd 09 3d 71 70 9a bb
       0.03004835 0.01314729 0.03364309 -0.004713111
000190 1c 73 da bd fb 56 d4 bd 28 ca 12 bd d8 3d ba bd
       -0.106664866 -0.10368153 -0.035837322 -0.09093827
0001a0 76 d5 88 bd c5 70 b9 3d 79 9e 93 bd 3f aa 3a be
       -0.066813394 0.09054712 -0.07207961 -0.18229006
0001b0 c5 bd 94 3d 7f 48 ed bd 45 e6 83 be 96 d2 3e ba
       0.07262758 -0.11586093 -0.2576162 -0.00072793046
0001c0 96 a7 ed bd c5 1e f8 bd 81 41 ca bd 33 07 5e 3d
       -0.1160423 -0.12115244 -0.09875775 0.054206084
0001d0 08 49 b5 3d f8 4f 92 3d b9 4a d6 3d eb 8f 96 3c
       0.0885182 0.07144159 0.10463471 0.018379172
0001e0 0f be 34 3d 79 33 23 bd 2e 35 ab 3c f7 61 10 bb
       0.044126566 -0.03984401 0.020899381 -0.0022031048
0001f0 a7 33 af 3d 7e e4 a5 bd 53 5c 3d 3d c3 01 ac bd
       0.08554774 -0.08100222 0.046230625 -0.083987735
000200 8b e2 1a 3e 05 9e 45 bd 53 75 ce bd 40 fb 20 3d
       0.15125482 -0.048246402 -0.100809716 0.03930211
000210 d4 d5 35 3e fa 6d 7a 3d c7 82 24 be 8e ef 62 3d
       0.1775735 0.061140038 -0.16065513 0.05540424
000220 22 dd 35 bc d5 ac 3b be 8c 2f 1f be ae e0 8f 3b
       -0.011100085 -0.18327649 -0.15545481 0.0043907976
000230 0c 57 a3 bb 15 ec 07 be b7 19 06 3d f8 7f 98 3d
       -0.004984742 -0.13273652 0.032739367 0.07446283
000240 f6 7e 93 3d 21 ed a3 3d ee 58 5a bd 68 a4 5b bd
       0.0720195 0.08004213 -0.053307466 -0.053623587
000250 52 62 fc bd bb 10 21 3d 90 90 de 3c 4f 7a f8 bd
       -0.123234406 0.039322596 0.027168542 -0.121327035
000260 98 37 44 bc d0 d8 09 3e 9e df f9 3d 6a ea 80 3d
       -0.011976145 0.13461614 0.12200855 0.06294711
000270 69 2e 09 be 62 1a 12 bd f5 31 f5 bc 7d 50 da bc
       -0.1339661 -0.03566969 -0.029931048 -0.026649708
000280 3f d2 bc bd 92 14 8c bd 02 7e b0 3c 74 a7 7f 3c
       -0.09219789 -0.06839861 0.02154446 0.015603889
000290 a6 6f a5 3d 0a 19 87 3c 6e 0a 82 3d 87 e3 17 bd
       0.08077936 0.016491432 0.063496456 -0.03708222
0002a0 8e da 01 be a8 e7 8e bd a5 3e 45 be 16 67 02 3e
       -0.12681028 -0.06977779 -0.19262178 0.12734637
0002b0 a9 a1 8a 3d d1 64 64 3d 21 e3 5b bd 00 8c f8 3c
       0.067691155 0.05576021 -0.053683404 0.030340195
0002c0 e8 32 1f be 63 3a e8 bd f1 27 2d be 88 b0 ba bd
       -0.15546763 -0.113392614 -0.16909768 -0.09115702
0002d0 38 11 0d bd 94 12 e8 bc 93 ff 8a bd ad 0f 4c bd
       -0.03444025 -0.028329171 -0.06787028 -0.049819637
0002e0 0e e2 cb bd a3 7f 07 3d fc dd cd 3d e7 94 2d bd
       -0.09955226 0.03308071 0.10052106 -0.042378332
0002f0 c8 f3 93 3d e8 45 b9 3d 06 08 1b bd b0 07 da 3d
       0.07224232 0.09046537 -0.03784945 0.106459975
000300 4c 5a db 3c e1 ba ec 3c c5 35 ba 3c 1b c0 d5 3c
       0.026776455 0.028897705 0.022730717 0.02609258
000310 36 98 67 3d 45 de 92 3d 9e ca df bd 48 47 b6 be
       0.056541644 0.07171301 -0.10927318 -0.35601258
000320 12 fd 27 be 44 01 17 be 4c ce 82 3a 3b 45 1c bb
       -0.16405132 -0.14746577 0.0009979694 -0.0023844976
000330 40 27 5c be 8d c3 a1 bb 25 93 80 3c 63 80 55 bd
       -0.21499348 -0.0049366415 0.015695164 -0.052124392
000340 1d 71 6c 3c ba a5 76 bd 99 e1 5b 3d b2 04 ac 3c
       0.014431265 -0.060216643 0.053681944 0.020998333
000350 24 93 be bd ee 74 9d 3d 4e da 3f bd bd 54 9e bd
       -0.093054086 0.07688318 -0.04683905 -0.07731006
000360 f1 38 73 be f0 c9 23 be 93 a4 78 bc 54 36 b3 bd
       -0.2375219 -0.15995002 -0.015175956 -0.08750597
000370 11 33 10 bd 0f b5 e7 3a 5d 19 ac bd f7 3e 69 bc
       -0.03520495 0.0017677861 -0.08403275 -0.014236203
000380 48 0d 36 bd 5e 0e a1 bd 8a b1 22 be 82 8a 99 3c
       -0.04444626 -0.078640684 -0.15888038 0.018742803
000390 86 aa 0f 3c 6b 3c 0e bd 52 0b fe bd 5b ae 84 bc
       0.008768683 -0.034725588 -0.12404503 -0.01619642
0003a0 6d 58 8c bd 7d 5d 95 bd fd fc f3 3d 64 e4 8f 3d
       -0.068528034 -0.07293222 0.11913488 0.07025984
0003b0 13 35 31 3d 1b 4c 04 bc c6 22 9c 3c 58 d5 6c 3d
       0.043263506 -0.008074786 0.01905955 0.057820648
0003c0 f1 63 c8 3c ca f2 26 bd 9a 07 32 bd 3c 82 b6 3d
       0.024461718 -0.040758885 -0.04346428 0.08911559
0003d0 86 bb 4b 3c 3b 9d 31 3c 8a 76 ff 3d 9d a6 5c 3d
       0.012434846 0.010840709 0.124737814 0.053869832
0003e0 d0 67 9b 3d 67 5c af 3d bc 50 a4 3c bb 90 be 3c
       0.0758816 0.08562546 0.020058028 0.023262372
0003f0 91 05 14 be 38 61 90 bd ab 48 e0 bc fc 3d 94 bd
       -0.14455248 -0.07049793 -0.0273784 -0.07238385

bias f4 [256]
000000 e9 c4 cf bc db 1a ca bc 71 4a 97 bd 2f 2a 04 bb
       -0.025362449 -0.024671009 -0.073872454 -0.0020166745
000010 a6 9a 3e bb f8 60 d4 bd 90 42 19 bd 95 31 32 3d
       -0.0029083877 -0.10370058 -0.037416995 0.043504316
000020 65 b2 d6 3d df 32 5c bb 42 19 a4 bc 24 4d aa 3d
       0.10483245 -0.0033599657 -0.020031575 0.08315495
000030 76 3e e5 bd 51 66 86 bd 21 5e ea 3c c3 42 3e 3d
       -0.11193554 -0.06562484 0.028609337 0.046450388
000040 35 2d 10 3d 33 04 b9 bd 1b 5c a7 bc 26 66 a4 bc
       0.035199363 -0.09034004 -0.020429661 -0.02006824
000050 1f 21 a2 bd 7d 16 77 3d 78 70 90 bc 50 f3 e5 bc
       -0.079164736 0.06032418 -0.017631754 -0.028070122
000060 4a 66 4b bd 20 5d 0d 3d d7 e9 1a 3b 97 ef 51 3d
       -0.049658097 0.03451264 0.0023637915 0.05125388
000070 de ac e5 3d 1e 5f 39 3b cf 56 b8 bd 78 9d 9a 3d
       0.112146124 0.0028285454 -0.090009324 0.07549566
000080 28 a7 bf bd 01 ac 02 be de db cc bb 91 ae 50 bd
       -0.093580544 -0.12760927 -0.006251796 -0.05094773
000090 0a f8 dd 3c 57 a6 94 3d af 55 f7 3a 93 44 80 bd
       0.027095813 0.07258289 0.001887014 -0.062630795
0000a0 35 7f 63 bb 72 90 4c bd 8d 84 4f 3c 2f 3f a9 3d
       -0.0034713272 -0.04994244 0.01266588 0.082640044
0000b0 f3 71 b4 bc 95 dc 29 bd 26 00 3b bd 7c ed e8 bc
       -0.022026991 -0.04147013 -0.04565444 -0.028433554
0000c0 43 f9 47 bd 61 81 83 3d f7 0b c2 bd f1 2c 69 bd
       -0.0488217 0.064211614 -0.09474938 -0.056927625
0000d0 7e 14 bc 3c 74 e2 f1 bc 45 6a a4 3d af 7e d2 bc
       0.02295899 -0.029526927 0.08028082 -0.025695173
0000e0 11 5f 9d bc 7d fd a7 bd 1b f4 0e bd 2c a5 2b 3d
       -0.01921037 -0.08202646 -0.034900766 0.041905567
0000f0 bc 28 7f 3d 20 89 b0 3c 53 cc 87 3d 51 bd c5 3c
       0.062294707 0.021549761 0.066307686 0.024138125
000100 36 7e 47 bc 0a 8e f0 3d 2d 6b 6a bd 13 26 ba bd
       -0.012176087 0.11745842 -0.057231117 -0.09089293
000110 c0 77 0c 3d a0 a8 b2 bd bb aa 80 bd c7 07 a0 3d
       0.03429389 -0.08723569 -0.06282564 0.078139834
000120 07 7f 8b bc 90 c2 32 3d a3 b7 d7 3c 2e ec 9f bb
       -0.017028345 0.04364258 0.026332682 -0.0048804497
000130 bd b9 9f 3d d3 b0 3c bd ce d2 38 3d 2f f2 aa 3b
       0.07799099 -0.04606707 0.045122914 0.005216859
000140 ee 71 8e bd 0e 7c 29 3c b1 f1 16 bd 36 4c af 3c
       -0.06955324 0.010344518 -0.03685159 0.021398645
000150 49 97 e2 bd 98 b5 8f bd 2b 3f a8 3d 6c ea 3d 3d
       -0.110640116 -0.07017058 0.08215173 0.04636614
000160 b4 8b ab 3d d4 5c 61 bd 52 19 0b be 4d ac dc bc
       0.08376256 -0.05502017 -0.13583878 -0.026937628
000170 3d d0 95 3c 3a 81 46 bd 59 72 3c bd ec 42 b4 bd
       0.018287772 -0.048463084 -0.046007488 -0.08801827
000180 49 ae 03 3b 2a c9 9b 3d f0 c2 3e 3c 75 ee e6 3d
       0.0020092896 0.076067284 0.011643156 0.11275951
000190 c9 c6 d7 3d fc e0 11 bc 69 f5 b6 bc e3 74 d3 bc
       0.10535962 -0.008903738 -0.022333818 -0.025812572
0001a0 db 6b 8b 3d c3 56 78 3d 9c 35 a4 3d 44 da 45 bc
       0.06807681 0.060629617 0.08018038 -0.012075964
0001b0 37 05 e8 3c 81 fe 4c bd fe d4 ca 3c 52 d0 97 bd
       0.0283228 -0.0500474 0.024759766 -0.07412781
0001c0 ed 44 b4 bd 04 db e6 bc a7 ac 2e bd 60 78 98 3b
       -0.08802209 -0.028180607 -0.042645123 0.0046530217
0001d0 c1 b7 ca 3c 80 21 8e bd 70 ab 84 3d 79 eb 33 3d
       0.024745824 -0.06939983 0.064780116 0.043925736
0001e0 36 df a1 3b b1 98 ce 3c 3e e2 f1 3c 6a 96 22 3e
       0.004939939 0.025219293 0.029526826 0.15877691
0001f0 40 c7 be bb 37 11 c8 3c f1 c8 00 bc ff 15 0c bd
       -0.0058220923 0.024422271 -0.007860408 -0.034200665
000200 84 cb a9 bd 8b 3a 02 be aa c9 60 bd 0a f1 c0 bc
       -0.08290771 -0.12717645 -0.05487982 -0.023552436
000210 d1 1a ad bc 93 2c e5 bd 69 8a 02 3d 8e 3f e7 bc
       -0.021130951 -0.111901425 0.03187028 -0.028228547
000220 7f 67 ee bb b6 6c 90 3c 65 b0 46 bd 42 87 fd 3c
       -0.0072755213 0.017629962 -0.048508067 0.030948285
000230 08 2e aa 3b 8e c9 06 3e 32 09 44 bc e6 c8 ac bd
       0.0051934756 0.13162825 -0.011965083 -0.08436756
000240 72 71 c6 3b e0 c6 2d be 5a 4b 74 3b 63 d0 68 3d
       0.006056004 -0.16970396 0.0037276358 0.056839358
000250 24 ad 36 3c 38 21 42 bd 48 9f e1 3b 43 98 cf 3d
       0.011149678 -0.04739496 0.006885443 0.101364635
000260 92 95 d5 3c a4 96 85 3d c0 6c 0c bc a1 26 91 3a
       0.026072297 0.06522873 -0.00857085 0.0011074134
000270 68 5a fc bd a7 5f 59 3d 36 26 23 3c e1 1c 24 bd
       -0.12321931 0.053069737 0.009957841 -0.040066604
000280 1c 7d 8e bc 75 92 94 bd 29 c0 81 bd 46 be 0d 3e
       -0.017393641 -0.07254497 -0.0633548 0.13842115
000290 37 a3 08 be d4 29 64 bb f4 ad 68 bd e4 20 55 3d
       -0.13343512 -0.003481497 -0.05680652 0.05203332
0002a0 95 73 58 3c 67 c9 9a bc 61 65 c6 3c 09 e1 99 bc
       0.013211151 -0.018894864 0.024218263 -0.018784063
0002b0 a6 a3 65 3d b8 9d 48 3d 7e 58 57 bd cb 1c 1a bc
       0.05606427 0.048978537 -0.052574627 -0.009406279
0002c0 e4 f2 68 bc 3a 4e 9a bd a8 fe c1 bd 4f 76 0e 3c
       -0.014218066 -0.07534452 -0.094724 0.008695199
0002d0 fc dd 86 bd 97 f9 d8 3b a5 1c 40 3d a7 6e 57 bd
       -0.06585309 0.0066215503 0.046902318 -0.05259576
0002e0 ed 4c 46 3d c3 27 1b 3d a1 7c fe bc 34 86 fe 3d
       0.048413206 0.037879717 -0.031065287 0.12427941
0002f0 5d d2 e6 3c 31 b2 a8 3c 63 af d2 bd 0d 58 b0 bd
       0.02817648 0.02059278 -0.102873586 -0.08610544
000300 2d 44 f1 bc ab cd a3 bc 5d 1f 0c bd b8 f9 68 bd
       -0.029451454 -0.019995531 -0.034209598 -0.056878775
000310 c1 e0 24 bd 64 0c 94 bd 5c cc c8 3d 32 f1 33 bd
       -0.040253405 -0.07228926 0.098046035 -0.043931194
000320 60 b4 ac 3d fd 15 a4 bd 57 67 0c 3d dc 21 43 bd
       0.08432841 -0.080120064 0.03427824 -0.047639713
000330 61 6f 87 bc ad 77 95 bd fb 53 5b 3d ef 40 32 3b
       -0.016532602 -0.07298217 0.053546887 0.0027199348
000340 e0 54 9c 3c 3b 10 0f bd d2 bc 36 bc 60 46 b9 bc
       0.01908344 -0.034927588 -0.011153417 -0.022616565
000350 27 59 23 3d f8 97 94 bc ab af 00 bb 7f 44 a0 bd
       0.039879944 -0.01813887 -0.0019635956 -0.078255646
000360 76 c7 74 3d d8 ca 9a 3d 56 b9 83 3c f5 26 0a 3b
       0.059760533 0.075582206 0.016079586 0.002108035
000370 29 43 75 3d ca b1 b2 3d 3d 8e 95 3d e1 fe 08 3d
       0.059878502 0.08725317 0.073025204 0.033446196
000380 c2 2e 3e 3a 56 1d 93 3c d1 f1 0e bd c4 7d c6 3b
       0.0007254892 0.017958324 -0.034898583 0.006057473
000390 9e a9 67 3c 5b 6b 89 bd 07 23 31 bd 3e 68 5b 3d
       0.014139561 -0.067099296 -0.043246295 0.05356621
0003a0 89 77 dc 3c 13 15 40 3d 1f 7e 43 3e d7 4e 61 bd
       0.026912468 0.046895098 0.1909108 -0.05500683
0003b0 75 77 93 bc 95 16 8a bd 48 36 14 bc bf c0 26 bc
       -0.018001297 -0.067425884 -0.009046145 -0.01017779
0003c0 06 9e ac bd 62 51 76 bd c6 82 09 3e be e5 8d bb
       -0.08428578 -0.060136206 0.13428792 -0.004330366
0003d0 85 8c 09 3d 75 77 33 3d 79 aa 03 3d 8b f7 d5 3d
       0.033581275 0.043815095 0.032144997 0.10447606
0003e0 ba 13 2d 3d 6f d6 9b bd 18 f4 58 3c f8 ff bf bd
       0.04225514 -0.07609259 0.01324179 -0.09374994
0003f0 a2 5e 73 bc f7 85 f3 3b 86 cf b9 3d fe d6 09 be
       -0.014854105 0.0074317413 0.09072785 -0.1346092

weight f4 [10, 256]
000000 3e fa df bd f5 88 05 be 60 83 0a be 5b 49 cf bb
       -0.10936402 -0.13040526 -0.13526678 -0.0063258833
000010 e4 02 27 be dc ef f8 3d 6c b5 a6 3d 50 fc 22 be
       -0.16309696 0.121551245 0.08140072 -0.15916562
000020 b9 8c e3 3c ee 02 4f bd 96 8e c6 3c 19 c3 84 be
       0.027777063 -0.050539903 0.024237912 -0.25930098
000030 c2 23 c9 bc 73 84 47 be 3c 5e f0 bd 73 86 07 be
       -0.024553183 -0.19484119 -0.11736724 -0.13234882
000040 ac a4 68 3c a1 dc 3c 3d a6 b8 06 be ef b8 fe 3d
       0.014199417 0.046108846 -0.13156375 0.12437617
000050 6a e6 af bd 1a e9 58 3d 05 3f a7 bd 17 4d 9d 3c
       -0.0858887 0.052956678 -0.08166317 0.019201798
000060 c3 dc 05 3d f0 03 1d be 0d cd c9 bd f3 a1 14 3c
       0.032681238 -0.15333533 -0.098535635 0.009071815
000070 18 3d 3d be 5a 9a 09 be 03 bc 91 3c 5f 75 ae 3c
       -0.18480337 -0.13437787 0.017789846 0.021296201
000080 eb 7e 5d bd ff 71 a7 bc 59 50 a6 bc e0 f1 f5 bc
       -0.054076117 -0.0204401 -0.020301985 -0.030022562
000090 6a e1 0a 3e df 8f 9c 3c ae b5 7d 3c 65 e2 aa bd
       0.13562551 0.019111572 0.01548521 -0.083439626
0000a0 a0 72 39 be bd 14 c5 bd 72 42 91 be 58 df b4 bc
       -0.18110132 -0.09623096 -0.28371006 -0.022079155
0000b0 65 f2 05 bc 05 9d 1a be ba 46 9f bd 6d 51 aa 3c
       -0.008175467 -0.1509896 -0.07777162 0.02079078
0000c0 d0 fc f6 3c 89 aa 8f 3c 1c 8a 54 bc 00 79 87 3d
       0.030149847 0.017537372 -0.012972381 0.06614876
0000d0 b5 45 43 be d4 fc 0b 3c 39 8c 06 bd 48 ee 3a be
       -0.1906956 0.008544166 -0.03284857 -0.1825496
0000e0 3d 1b c1 bd ba 96 ee 3d 1d b8 d5 3c 27 95 a0 bd
       -0.094290234 0.116498426 0.026088769 -0.078409486
0000f0 c9 f8 43 bd 24 5e 8d bd 0a 06 1b be 05 fa d7 3d
       -0.047844682 -0.069027215 -0.15139022 0.10545734
000100 bf 3b bd bd df 3e 07 3e 46 9a 9b 3b 08 4f a0 bc
       -0.09239911 0.13207577 0.0047486154 -0.019568935
000110 aa b2 84 3d ba d6 bc 3d 7a da 73 bd 42 d1 f6 3d
       0.0647939 0.09220643 -0.059534527 0.120516315
000120 7f 22 11 3d b1 10 9e bd 5a 0b eb bd 98 e2 d3 bd
       0.03543329 -0.077180274 -0.114767745 -0.10345954
000130 d9 20 7f bc 73 49 5a 3d 29 ec fb 3d d2 0f 03 be
       -0.015571796 0.053292703 0.12300903 -0.12799004
000140 da e3 4c 3d da 93 04 3e 6f 55 ae 3d 76 a7 55 be
       0.050021984 0.12947026 0.08512389 -0.20864663
000150 94 bc bf bd e7 57 d4 3c e9 18 3d bd 52 cb 28 3d
       -0.0936214 0.025920821 -0.046166334 0.041209526
000160 f0 89 1e be ed 59 32 3d 5f 44 1f bc 15 26 18 3e
       -0.15482306 0.04354279 -0.009720891 0.14858277
000170 16 24 00 bd 40 15 27 bc 20 96 71 bd 22 23 03 be
       -0.031284414 -0.0101979375 -0.05898106 -0.12806371
000180 e2 32 8a bd a2 75 32 bd f3 8c 2f 3d 08 eb 04 3d
       -0.067479864 -0.043569215 0.04285903 0.032450706
000190 ca dc a9 bd 43 dc 84 bd c6 05 26 be b7 ca 15 be
       -0.08294065 -0.06487324 -0.1621314 -0.14628111
0001a0 a4 c9 22 be a1 e7 fb bd e1 61 10 be fd 90 81 3d
       -0.15897232 -0.12300039 -0.14099838 0.063264824
0001b0 ab 18 ab bc 3e ae 93 3d 86 1d 9f 3d ea da cf bc
       -0.020885786 0.072109684 0.07769303 -0.025372941
0001c0 c5 ce 21 3d de 96 d7 bd c6 3c 4e be 94 4f 2c be
       0.03950383 -0.105268225 -0.2014037 -0.16827232
0001d0 a3 d9 b5 bd 98 fe d1 3b 70 a3 74 be 74 27 26 be
       -0.088794015 0.006408524 -0.23890471 -0.16225988
0001e0 d8 28 a1 3d 00 6f bd 3d 02 31 ad bd 1e 31 8d bd
       0.078691185 0.09249687 -0.08456613 -0.06894134
0001f0 d1 c4 3b be 73 c5 19 be 9b 52 5d be 65 03 8b bd
       -0.18336798 -0.15016727 -0.21613543 -0.06787757
000200 67 ff 30 3c eb 33 89 3d f1 1f 71 bd 7d d9 b5 3d
       0.01080308 0.06699356 -0.058868352 0.08879373
000210 26 87 92 bd 05 2d 80 3b 66 f0 2a be 39 32 ea 3c
       -0.07154684 0.0039116167 -0.16693267 0.028588401
000220 6c be 68 3d 34 64 79 3d 26 75 cb 3c 26 93 ae 3d
       0.056822225 0.060886577 0.024836134 0.0852416
000230 0b 0d 34 be a9 c1 05 be cd 4a a2 3b 8a b4 00 3e
       -0.175831 -0.13062157 0.0049527646 0.1256887
000240 6b ab 55 be d9 16 88 bd fa a0 20 be 13 2b a8 3c
       -0.20866172 -0.06644983 -0.15686408 0.020528352
000250 b3 37 01 be b1 c1 b9 bd 7f 9d 88 bd af ab cb 3d
       -0.12618904 -0.09070147 -0.06670665 0.099448554
000260 82 b9 8f 3d 0b 88 5c bd dc 49 d4 3d 6f f9 b4 bb
       0.07017805 -0.05384068 0.1036565 -0.005522899
000270 ac fd 36 3d d9 1a 64 bd 04 23 98 bd 0e ba ec bb
       0.044675514 -0.055689666 -0.07428554 -0.007224328
000280 64 39 e7 bd 4a 3e 05 be b1 bd b9 3d ac d1 66 be
       -0.11290243 -0.13012043 0.09069384 -0.22540921
000290 5c ca 1d bd e7 09 9d bd 5c 29 eb bc 01 a6 b0 bd
       -0.038523063 -0.07667904 -0.028706245 -0.08625413
0002a0 73 cb a1 bd b4 57 98 bd 1a 6c 16 be 5d 8d 79 bd
       -0.07900133 -0.07438603 -0.14689675 -0.06092583
0002b0 ae 2d 5c be c9 f4 b6 3d 66 26 a2 3c 1b 27 b8 bc
       -0.215018 0.08933408 0.0197937 -0.022479584
0002c0 a6 d4 05 3d 23 60 6e 3a 91 8a 7b 3d bd b9 4e be
       0.0326735 0.0009093305 0.061411444 -0.20188041
0002d0 f3 15 98 3c 2d 60 84 bd 26 3c 7b 3d 28 83 60 bd
       0.018565154 -0.064636566 0.06133666 -0.05481258
0002e0 d6 5c 49 3d 3f f5 17 bd 5e 39 92 3d 05 c7 54 be
       0.0491608 -0.03709912 0.07139848 -0.20779045
0002f0 1e b5 8c 3d be 79 b7 bd fe 4d 9f bd 50 31 a5 bd
       0.06870483 -0.08958767 -0.07778548 -0.08066046
000300 91 d3 30 3d b1 a8 1b be f6 74 18 3d 02 bd 7f 3d
       0.043170515 -0.1520107 0.037220918 0.06243611
000310 54 9b bf bc 5c 45 31 3d a2 f5 6d bd 6d 3a b5 3d
       -0.023389496 0.043279037 -0.05809558 0.088490345
000320 4f 2e d6 3d 65 2f 88 3d ea a6 39 bd 75 26 4b 3d
       0.104580514 0.06649665 -0.045325197 0.049597222
000330 a0 3f ed bd 64 34 32 3c be 89 79 bc 36 c2 f3 bd
       -0.11584401 0.010876749 -0.015230594 -0.11902277
000340 87 8c 15 bd 23 01 46 be fc a5 12 be 8b 57 a0 bd
       -0.03651097 -0.19336371 -0.1432113 -0.078291975
000350 f6 c1 8f 3d c3 83 c8 bd 9d e2 50 be ee b9 d4 bc
       0.07019417 -0.097907566 -0.20398946 -0.025967564
000360 60 66 12 bd 81 c5 e9 3d e8 92 92 bd f7 7a 19 3d
       -0.035742164 0.11414624 -0.071569264 0.037470784
000370 39 1a a0 bd ed 22 ba bd bd 5f 1c be f7 cc 1e 3c
       -0.078175016 -0.09088693 -0.15270896 0.009692422
000380 df d3 78 3d e6 ea 09 3d 77 5a bc 3d ad e6 15 be
       0.06074893 0.033671282 0.09196942 -0.14638777
000390 c8 d7 2e 3c b9 be 19 be b9 7d 6f 3d 96 87 80 3c
       0.010671563 -0.15014161 0.058469508 0.015689652
0003a0 3e 8b 97 bd d4 ea e3 bd 86 6f 12 3d d4 47 35 bc
       -0.07399605 -0.11128774 0.03575089 -0.011064488
0003b0 ad 6c 72 3d 4e 48 07 3c 3d e9 3f bd db 1e c6 3d
       0.059185673 0.008256985 -0.046853293 0.09673854
0003c0 8b c5 1d be 89 ec 34 be 0b ac 8a bd 63 cd e6 3c
       -0.15407388 -0.17668356 -0.06771096 0.028174108
0003d0 e8 22 9c 3d c2 fa ac 3d 89 38 db bd 38 e7 0f be
       0.07623845 0.08446266 -0.107041426 -0.14053047
0003e0 2d 4b 7f be 83 f3 2a 3d 86 2d 47 be d2 fd f4 bd
       -0.24931021 0.041736137 -0.1945096 -0.11962475
0003f0 f6 ce 0b 3e 2e 8a 05 bd 89 1a 48 be 57 8d 7d 3d
       0.13653168 -0.03260248 -0.19541372 0.06190237

bias f4 [10]
000000 a0 7e 5a 39 62 65 29 3e f0 01 f8 bd de 07 95 3d
       0.00020837272 0.1654258 -0.121097445 0.07276891
000010 c9 7b f1 bc 2a b5 b2 bd a7 b6 0a bd 56 17 96 bd
       -0.02947797 -0.087259606 -0.033865597 -0.0732867
000020 49 28 10 3e b2 2e b1 3b
       0.14077868 0.005407178
